assets/model/model.tflite (tflite, 11524 bytes, 5 tensors)

arith.constant f4 [1, 32]
00000000: c243 913e 3dd8 95be 863f 47be 9866 c8be
00000010: 1da0 9abd 77ab d43e 1cd6 d2be 8e00 4c3e
00000020: c69f 51be 6699 76be 3821 693e 67ef b3bd
00000030: f143 743e bbab e03e 2654 1d3e 4b84 b1be
00000040: 78b8 643e 5b5e 2d3e e7ed d63e c1d3 763e
00000050: ce2d 11be ffdd 063f bef7 e6be 6260 c4be
00000060: 8c8d bfbe f19f 66be d3cb a83e f114 003e
00000070: 8635 04bf 1c9d d8be 1925 ef3d 254a dfbe
0.28372008 -0.2926654 -0.19457826 -0.39140773 -0.075500704 0.41537067 -0.41178977 0.19922087
-0.20471105 -0.24081954 0.22766578 -0.08785897 0.23854043 0.4388102 0.15364131 -0.34671244
0.22335994 0.16930525 0.4197838 0.24104215 -0.1417763 0.5268249 -0.45110887 -0.38354784
-0.3741268 -0.2252195 0.32968006 0.12507989 -0.5164417 -0.42307365 0.11676998 -0.43611255

arith.constant1 f4 [32, 64]
00000000: ad55 35be 2cb7 36be 9c11 153e 02f7 b33d
00000010: 84af a1bd 0ed6 af3c dfc2 8a3c 5e23 243e
00000020: 9636 6dbc e40c ffbd 910d 78bd 55d0 b43e
00000030: 62a9 783e 4594 153e d6ad 2cbe d664 893e
00000040: 6610 083b 0ec8 3f3e 083e 8f3e 30a4 7b3e
00000050: 04bd 033e ae69 a33e b3d4 a4bb 9355 a33e
00000060: 4999 603e b4a3 0e3e 1337 3a3e 797f 843e
00000070: 1883 0ebc 4e9e 8fbd 84b2 0f3e 9e67 523d
00000080: 705d 8c3c 6663 733d 73ea 65be 7f57 10be
00000090: 958a 723d 86aa 513d 0006 cb3d 6a9d 48bd
000000a0: dfe2 2fbe c28e d1bd 17b3 4abe 9430 afbd
000000b0: 6ed5 443d 8a2f 233c 98a8 403e 4cf2 86be
000000c0: 8f89 38bd 93c1 41be 93c6 2a3e f0e3 823e
000000d0: 772e a4be d28c 493e 39fe 113e c241 c53c
000000e0: 9448 cbbd 65bb 413d 314b 393e effa 10bd
000000f0: e4ca 12be 29f6 23be cabc 2cbe 2e12 023e
00000100: eec3 48bd d0e1 85be c11e 303e 08f0 47bd
00000110: 54d3 ae3c 4d57 5a3e 7a38 523e cee4 f43d
00000120: 0c01 82be 2050 6b3e 79af be3d 5f83 20be
00000130: 63a6 4d3e ab20 d13b a584 acbd 9ce0 b8bd
00000140: ba3b 5c3e 12f6 dfbd 5dae c03d 85e7 d23d
00000150: 6756 a23d d052 8bbe 26ed 3f3e 5780 a93b
00000160: b605 83bd 9663 093e 896e 53be 05ac b23d
00000170: cfa5 16be cd01 bcbd edff 553e 4a20 763e
00000180: be6c 2d3e a636 dd3c b147 e33d bcfc c23c
00000190: 580e 593e 5217 c9bd 4ee5 a8bc f214 a83d
000001a0: c2ab 5a3e 46a9 e03d dc7b 36be a17e 9d3d
000001b0: 656b 85bd 1fb0 00be 5030 cf3d 4e81 493e
000001c0: 525d 293e 296f 5dbe 75e2 0f3e ab73 4f3e
000001d0: a480 3dbe f711 1f3e b149 7a3d 43fe 7abe
000001e0: c53b 6abd ca69 5abe da1b 2f3e 8bad 14be
000001f0: 70a0 b7bd 9758 9e3d 881a 343e 1d81 a8bd
00000200: 52c2 4ebd 4e07 1ebe 2073 0cbe 7e46 e3bd
00000210: e275 863d 0ec2 22be 736c 49bd ba3a cf3d
00000220: cc64 7dbd ca7a 143e d96a d23d 676c 88be
00000230: d9d3 71be 96fa 183d 04e4 9a3d a8e2 223e
00000240: 9315 f7bd 9243 a63e ab49 dfbd cd78 8b3c
00000250: 71db abbe bc20 d3bd 5cc8 3dbd b5d7 103d
00000260: 260a 8b3e 4706 503e c5d8 f23d 9116 9b3e
00000270: a269 023e 4f1e 7d3e 236c 37bd e6b9 0c3d
00000280: cd51 c63d 7d48 3a3d c15c 993d 67ec e63d
00000290: 6d2b bb3c 7a86 0dbe dde4 3b3e ada2 4ebd
000002a0: 3ffa 423e c246 cb3d b6d5 26be 11ee 653c
000002b0: 4bf3 583d 9d22 b4bd a57e 83bd 0a64 d1bd
000002c0: 96be 1dbe 24de f4bc 3bcf 0b3e 2564 4e3d
000002d0: 55ce a43e 6c9d e3bd eac9 fe3d b92a 34bd
000002e0: 69b6 033e 09cf 8a3e 5e12 51be 7575 97bc
000002f0: d26c 8e3e e9c7 6c3e 0505 8d3e d962 5ebd
00000300: 00cd 623d 4b73 793d 286b 1fbd e6fc 013d
00000310: 89bd 2b3d 3e1b 8b3e f089 053e dfd9 393e
00000320: 61aa e13d e342 81bc 15bf a83e 6647 91bd
00000330: 6ff3 9ebe af98 f33d 7040 4f3e 7b09 08be
00000340: 3087 6fbd ff84 9f3e c786 edbd 3720 7b3d
00000350: ea15 743d dbb2 a9be c307 edbb 7105 58be
00000360: 3b8b 6b3e dfb6 953d 6aee 26be ce89 0cbe
00000370: 480f 6b3d f69c 98bd b3fe 843e e984 d1bd
00000380: b5f0 09be fa81 223e 851e 873e 656e e43d
00000390: 11bb 883e be69 ac3d 2f32 923e 07b8 2e3d
000003a0: 2c51 f6bd 5196 22be f892 073e fd9b 383e
000003b0: baf7 45be b089 0fbe 1b2b 40be 1d88 a53d
000003c0: 721c 48be 6ab2 a53d 9293 203b 03f4 c73d
000003d0: 9858 3f3e 3c1d 513e 2760 ccbd b061 93be
000003e0: 9f00 ed3d 8d72 39be b826 27bd 4158 01be
000003f0: 8019 e3bd ace7 7a3d 4502 973e dc9a 943e
-0.17708464 -0.17843312 0.14557499 0.087873474 -0.07894805 0.021464374 0.016938625 0.16029117
-0.014478346 -0.124536306 -0.060559813 0.35315195 0.24283364 0.14607342 -0.16863188 0.26834744
0.0020761727 0.18728659 0.27977014 0.24574351 0.12865072 0.31916565 -0.0050302385 0.31901225
0.21933474 0.13929635 0.18185072 0.25878504 -0.008698247 -0.07012616 0.14032942 0.05136835
0.017134398 0.059420966 -0.22452717 -0.14095877 0.059214193 0.051188014 0.09913254 -0.048978247
-0.17176388 -0.10232307 -0.1979488 -0.085541874 0.048055105 0.009960065 0.18814313 -0.26356733
-0.04505306 -0.18921499 0.16677313 0.25564528 -0.320667 0.19682625 0.14257134 0.024079207
-0.099259526 0.047297854 0.1809509 -0.03539556 -0.14335209 -0.16011871 -0.16868892 0.12702248
-0.049014978 -0.26148844 0.17199232 -0.048812896 0.021341003 0.21322365 0.20529357 0.119577035
-0.25391424 0.22979784 0.093108125 -0.15675114 0.20083003 0.006382068 -0.084237374 -0.09027216
0.21507159 -0.10935606 0.09408257 0.10298065 0.07926636 -0.27211618 0.18742809 0.00517277
-0.06397574 0.13416895 -0.20647635 0.08724216 -0.14711688 -0.09180031 0.20898409 0.24035755
0.16936013 0.027003597 0.110976584 0.023802154 0.21196878 -0.09818901 -0.020617153 0.0820712
0.21354583 0.10969786 -0.17820686 0.07690168 -0.065146245 -0.12567185 0.10116637 0.19678232
0.16539505 -0.21624435 0.1405123 0.20258968 -0.18506104 0.15534197 0.061105434 -0.24511056
-0.057185907 -0.21329418 0.17100468 -0.14519326 -0.08966148 0.07731741 0.17588246 -0.082277514
-0.050478287 -0.15432474 -0.13715792 -0.1109743 0.06565453 -0.15894338 -0.04917569 0.10118623
-0.061863706 0.14499965 0.10274286 -0.26645204 -0.2361597 0.037348352 0.07563022 0.15906775
-0.12064662 0.32473427 -0.10902723 0.017025376 -0.33565858 -0.10308978 -0.046333656 0.035361964
0.2715618 0.20314895 0.11857752 0.30290654 0.12735608 0.24718593 -0.04478086 0.034356974
0.09683571 0.045479286 0.074883945 0.11275559 0.022847855 -0.1382083 0.18349023 -0.05044811
0.19040774 0.09925605 -0.16292462 0.01403381 0.052966397 -0.087956645 -0.0642064 -0.10224159
-0.15404734 -0.029891081 0.13653271 0.050388474 0.3218867 -0.1111401 0.12440856 -0.043986056
0.12862553 0.2711108 -0.20417163 -0.018488625 0.27817398 0.23123135 0.27542892 -0.054293487
0.055371284 0.060900968 -0.03892055 0.031735323 0.0419288 0.27169222 0.130409 0.18149517
0.11018825 -0.015778964 0.32958284 -0.07093696 -0.310451 0.118943565 0.20239425 -0.13284867
-0.058478534 0.31156155 -0.11597972 0.06131002 0.05959121 -0.33144268 -0.0072335913 -0.21095826
0.23002331 0.073102705 -0.16301885 -0.13724443 0.05738762 -0.07451813 0.2597557 -0.10230429
-0.13470729 0.15869895 0.26390472 0.111538686 0.2670522 0.08418606 0.28553912 0.04265597
-0.12027201 -0.15877654 0.13239658 0.18028255 -0.19332781 -0.14017367 -0.18766443 0.08082602
-0.19542101 0.080906704 0.0024502021 0.097633384 0.1868614 0.20421308 -0.09979277 -0.28785467
0.11572384 -0.18110104 -0.04080841 -0.12631322 -0.11088848 0.061256096 0.2949392 0.29024398

sequential_1/dense_1_2/Add/ReadVariableOp f4 [32]
00000000: 6002 833d 11b2 07bd 5fa6 2d3d a56b 533d
00000010: 8aa4 5ebb fb5f ce3d 43cf e8bc e7e3 be3d
00000020: ccb4 e83c 1674 2f3d 0000 0000 88e2 8bbc
00000030: 2923 4c3d 5a50 0b3e e1c7 f73d 0000 0000
00000040: 0014 76bc 7128 823d 16a9 d5bb f827 cdbc
00000050: a8e2 e33c 0e4b 9c3d 9371 293d 1454 e33b
00000060: 5a76 2e3d 1a53 1a3d c5ad ce3d 8c6c 8e3d
00000070: 785e 383d 238d c93c 7f6b e93d 137e 4f3d
0.06396937 -0.0331288 0.042394992 0.05161633 -0.0033972585 0.100769006 -0.028419143 0.09320813
0.028406523 0.042835318 0.0 -0.017075792 0.04983822 0.1360487 0.12098671 0.0
-0.015019417 0.0635537 -0.0065204008 -0.025043473 0.027818039 0.07631503 0.04136808 0.006937513
0.042593338 0.037676908 0.10091738 0.069542974 0.045011967 0.024603432 0.113974564 0.050657343

sequential_1/dense_1/Add/ReadVariableOp f4 [64]
00000000: 8629 c63d 5ca6 e0bc 7d6f 1c3c 0a61 323d
00000010: 2bb3 023d 9430 bfbb cdcd 0cbd 5ef7 5ebc
00000020: 4d04 6d3d 04b9 a93d 95d3 e93d c2c0 093e
00000030: 4b3a 30bc f7d0 053e 8179 933d 59ba 1cbd
00000040: 185a ebbc 68b2 543d 8d19 ed3d 01ed c13d
00000050: 3ad4 d33d 4dc7 c83d 9c79 d63c ce1b 843d
00000060: a63c cf3d d970 443d 540c babc 9d2c c43d
00000070: c7de d43d 0634 693d 25b1 603c f7a9 d23c
00000080: 370d 133d eda2 d03d 14a1 883d 6f41 14bd
00000090: 927b 20bd 79de 3f3d e8c1 bc3d e355 9e3b
000000a0: 79fd cf3a e060 dcbc 11c9 0a3d c588 8d3d
000000b0: e759 803d 8ce2 483c 7cd5 c83d f256 023d
000000c0: 3557 4e3b 9798 77bd cc72 f83d e91a 293c
000000d0: 3114 913d 3524 103d 7e27 10bd 6e21 883d
000000e0: 00a5 1a3d b8f6 053d 7b87 d53d 0d74 8d3d
000000f0: 86e0 f83d 6160 8a3d cad9 553d fce2 b73d
0.09675889 -0.027423076 0.009548065 0.043549575 0.03190915 -0.0058346484 -0.034375954 -0.013608782
0.05786543 0.08287242 0.11417309 0.13452438 -0.010756086 0.13067995 0.072009094 -0.038263652
-0.028729483 0.051927954 0.11577139 0.09469033 0.103432134 0.098036386 0.026181035 0.06450616
0.1011899 0.047959182 -0.022710957 0.09578822 0.10394054 0.05693438 0.01371411 0.025715811
0.035901275 0.101873256 0.06671348 -0.036195215 -0.039180346 0.046843026 0.09216672 0.004832016
0.0015868387 -0.026901662 0.033883158 0.06910852 0.062671475 0.012261044 0.09806344 0.0318212
0.0031485085 -0.060448255 0.12131271 0.010321357 0.07083929 0.03519078 -0.035193913 0.06647001
0.037755013 0.032705992 0.104262315 0.069069006 0.121521994 0.06756664 0.052209653 0.08978841

sequential_1/dense_1/MatMul f4 [64, 3]
00000000: b888 883e 2ec3 8ebe adc6 bc3e 67af 563e
00000010: d3a3 213e 4f94 483e d4ec 0e3d 0fb5 283e
00000020: b93c d2bd 0912 11bd c550 4bbe 7af9 d43d
00000030: f218 88be 37d8 f23d 2cb1 5fbe 4345 4c3e
00000040: 5b81 11be d95e e3bd eb70 35be 3ffa 333e
00000050: 21be df3c cf3b 883e 5c4e 163e db37 123e
00000060: a1d7 f63c 2145 393e 0134 3cbe db68 553e
00000070: b58c 8cbe d1aa d03e 26a9 c43d 1ef1 3cbd
00000080: 3eed ae3e e6ef c03d c525 0ebd 5d15 99be
00000090: 1f45 bbbd a42a 1a3e a852 d3bd 87c0 7e3e
000000a0: bbe0 e7bc ef76 a63e 7175 423c c13b 48bd
000000b0: 90cb 833e a279 3abc ea59 fabd 109d d5bd
000000c0: 8f09 7c3e be24 e83d e142 553e 36c2 1dbe
000000d0: 5fdc fabd 5d40 743e a82e 27be 7d39 6a3e
000000e0: 2e05 7dbe 43f2 3b3e ef17 a73e 3cb9 c63d
000000f0: 3f76 18be dd77 333e b726 acbe e767 fbbd
00000100: 81c3 2e3e 74a3 65be 5e5f 40be 2eff 873e
00000110: 6db4 923c 5a7f e7bd a80c 053d acb6 aebe
00000120: 3cb1 b23e 20b9 dc3c 4193 c1bc 04f0 083e
00000130: 91e5 10be da54 293d 522b d2bd 5152 b9bd
00000140: 8080 10be b1b6 d03d d2bb 9f3e 565f 933e
00000150: 6714 6fbd ec6e 203e 84b2 aabe 1ffb cabd
00000160: 529f a3be 8c97 62bd 944c 7ebd 518b 8ebe
00000170: 018b be3d d060 23bd d1a4 71be 3b6f 643e
00000180: 1f2e a9be 3052 01be 8192 4bbe 1559 9b3c
00000190: a5de f73d 4bd9 273e 0742 0cbe 0248 603d
000001a0: 3a1a bf3e 8a78 1dbe e5ab 863d 1397 83bd
000001b0: 08f9 023c aa42 823d cc5b c73c df63 2a3e
000001c0: 8e8b 8c3e b38b a9be c128 723e b8c9 86be
000001d0: eed1 af3e facf fd3d c5cd af3e eed4 13bd
000001e0: faae 23be 87c9 593e bc0f 503d fe1a 783e
000001f0: 1582 243d 6f86 063b 1772 2cbe 45eb 93be
00000200: eeae 6c3e 5950 7abe 5a1b 623e 7d3d a53e
00000210: a1f5 0b3e 2959 ab3c 4e38 03be 2255 aa3e
00000220: 9a30 663e 5c57 d13c 7c11 b0be e587 abbd
00000230: ca7e 45be 611d 133e aa0b 80be 71f3 103d
00000240: 6308 5b3e 61cd 513e f00b 90be 6b89 59bd
00000250: f83b c03d 1e04 79be 8836 90be 1bb6 84be
00000260: 07e9 493c c2e2 a93d f341 853e c77f 0cbe
00000270: bda9 883e 6a34 8ebe e490 003e de65 43be
00000280: 0883 97be eab0 1d3e 2fec 733e 4d22 febc
00000290: daac 7b3a bd43 a2bd 0530 973d 8bc0 97be
000002a0: 3ab2 8e3d adbb 2fbe f31b 553e 221d 743e
000002b0: e454 803e f25d 96bd b341 473e b212 813e
000002c0: 0356 b7be 7223 423e 0028 a9be d2fa 403e
000002d0: abc1 a13e 4dbf 0dbd 0fd7 6a3e 0bd4 303e
000002e0: 63d7 4ebe e96b 813e 4f5c 12bc 5624 74be
000002f0: a9f0 1c3d af62 553e e096 a23e 65f5 553e
0.26666808 -0.27883285 0.36870328 0.20965348 0.1578515 0.19587825 0.034893826 0.16475318
-0.10265488 -0.03541759 -0.1985503 0.103991464 -0.26581532 0.11857646 -0.2184493 0.19948296
-0.14209501 -0.11102075 -0.17718856 0.1757593 0.02731234 0.2660813 0.14678329 0.1427912
0.030132117 0.18092777 -0.18379213 0.2084078 -0.274511 0.40755323 0.09602575 -0.046128385
0.34165376 0.09420757 -0.03470399 -0.2989911 -0.09144043 0.15055329 -0.103185 0.24878131
-0.028305402 0.32512614 0.0118688205 -0.04888511 0.25741243 -0.011381539 -0.12224181 -0.10430348
0.24613021 0.11335133 0.20826294 -0.15406117 -0.12249064 0.23852678 -0.16326392 0.22873493
-0.24709007 0.18354134 0.32635447 0.097032994 -0.14888857 0.17526193 -0.33623287 -0.12275677
0.17066766 -0.22425634 -0.1878638 0.26561874 0.0179083 -0.11303587 0.032482773 -0.34123743
0.34900844 0.026943743 -0.023629786 0.13372809 -0.14150073 0.041340686 -0.10262169 -0.09048904
-0.14111519 0.101910956 0.31197983 0.28783673 -0.058369067 0.15667313 -0.33339322 -0.09911179
-0.3195749 -0.055320308 -0.06208475 -0.27840665 0.09303857 -0.03988725 -0.23598029 0.22308056
-0.33043 -0.12629008 -0.19880106 0.018963376 0.12103013 0.16391484 -0.13697062 0.054756172
0.37324697 -0.15378013 0.06575755 -0.064252995 0.007993944 0.063603714 0.024335764 0.1663966
0.27450222 -0.33114395 0.23648359 -0.26325774 0.3433985 0.12393184 0.34336677 -0.036091737
-0.15984717 0.21268283 0.050796255 0.24229047 0.04016312 0.0020526906 -0.16840397 -0.28890434
0.23113605 -0.24444713 0.22080746 0.32273474 0.13667919 0.020916538 -0.12814447 0.33268076
0.22479478 0.025554352 -0.3438834 -0.08375529 -0.19286647 0.14366676 -0.250089 0.035388414
0.21389918 0.20488502 -0.28134108 -0.053109568 0.09386438 -0.24317977 -0.28166604 -0.25920185
0.012323624 0.08295204 0.26026878 -0.13720618 0.26692 -0.27774364 0.12555271 -0.19081828
-0.29592156 0.15399519 0.23820566 -0.031022215 0.0009600647 -0.07923076 0.07382206 -0.29639086
0.06967588 -0.17161436 0.20811443 0.23839238 0.25064766 -0.073421374 0.19458656 0.25209576
-0.3580781 0.18958834 -0.3303833 0.1884568 0.3159307 -0.034606267 0.22933601 0.17268388
-0.20199351 0.2527764 -0.008933141 -0.23841986 0.03831545 0.20838426 0.31755733 0.20894392
